LapSRN(
  (head_x8): Conv2d(2, 128, kernel_size=(3, 3), stride=(1, 1), padding=(1, 1))
  (head_x4): Conv2d(2, 128, kernel_size=(3, 3), stride=(1, 1), padding=(1, 1))
  (head_x2): Conv2d(2, 128, kernel_size=(3, 3), stride=(1, 1), padding=(1, 1))
  (feature_extractor_x4): FeatureExtraction(
    (body): Sequential(
      (0): RCAB(
        (body): Sequential(
          (0): Conv2d(128, 128, kernel_size=(3, 3), stride=(1, 1), padding=(1, 1))
          (1): LeakyReLU(negative_slope=0.2, inplace=True)
          (2): Conv2d(128, 128, kernel_size=(3, 3), stride=(1, 1), padding=(1, 1))
          (3): CALayer(
            (avg_pool): AdaptiveAvgPool2d(output_size=1)
            (conv_du): Sequential(
              (0): Conv2d(128, 8, kernel_size=(1, 1), stride=(1, 1))
              (1): ReLU(inplace=True)
              (2): Conv2d(8, 128, kernel_size=(1, 1), stride=(1, 1))
              (3): Sigmoid()
            )
          )
        )
      )
      (1): RCAB(
        (body): Sequential(
          (0): Conv2d(128, 128, kernel_size=(3, 3), stride=(1, 1), padding=(1, 1))
          (1): LeakyReLU(negative_slope=0.2, inplace=True)
          (2): Conv2d(128, 128, kernel_size=(3, 3), stride=(1, 1), padding=(1, 1))
          (3): CALayer(
            (avg_pool): AdaptiveAvgPool2d(output_size=1)
            (conv_du): Sequential(
              (0): Conv2d(128, 8, kernel_size=(1, 1), stride=(1, 1))
              (1): ReLU(inplace=True)
              (2): Conv2d(8, 128, kernel_size=(1, 1), stride=(1, 1))
              (3): Sigmoid()
            )
          )
        )
      )
      (2): RCAB(
        (body): Sequential(
          (0): Conv2d(128, 128, kernel_size=(3, 3), stride=(1, 1), padding=(1, 1))
          (1): LeakyReLU(negative_slope=0.2, inplace=True)
          (2): Conv2d(128, 128, kernel_size=(3, 3), stride=(1, 1), padding=(1, 1))
          (3): CALayer(
            (avg_pool): AdaptiveAvgPool2d(output_size=1)
            (conv_du): Sequential(
              (0): Conv2d(128, 8, kernel_size=(1, 1), stride=(1, 1))
              (1): ReLU(inplace=True)
              (2): Conv2d(8, 128, kernel_size=(1, 1), stride=(1, 1))
              (3): Sigmoid()
            )
          )
        )
      )
      (3): RCAB(
        (body): Sequential(
          (0): Conv2d(128, 128, kernel_size=(3, 3), stride=(1, 1), padding=(1, 1))
          (1): LeakyReLU(negative_slope=0.2, inplace=True)
          (2): Conv2d(128, 128, kernel_size=(3, 3), stride=(1, 1), padding=(1, 1))
          (3): CALayer(
            (avg_pool): AdaptiveAvgPool2d(output_size=1)
            (conv_du): Sequential(
              (0): Conv2d(128, 8, kernel_size=(1, 1), stride=(1, 1))
              (1): ReLU(inplace=True)
              (2): Conv2d(8, 128, kernel_size=(1, 1), stride=(1, 1))
              (3): Sigmoid()
            )
          )
        )
      )
      (4): RCAB(
        (body): Sequential(
          (0): Conv2d(128, 128, kernel_size=(3, 3), stride=(1, 1), padding=(1, 1))
          (1): LeakyReLU(negative_slope=0.2, inplace=True)
          (2): Conv2d(128, 128, kernel_size=(3, 3), stride=(1, 1), padding=(1, 1))
          (3): CALayer(
            (avg_pool): AdaptiveAvgPool2d(output_size=1)
            (conv_du): Sequential(
              (0): Conv2d(128, 8, kernel_size=(1, 1), stride=(1, 1))
              (1): ReLU(inplace=True)
              (2): Conv2d(8, 128, kernel_size=(1, 1), stride=(1, 1))
              (3): Sigmoid()
            )
          )
        )
      )
      (5): RCAB(
        (body): Sequential(
          (0): Conv2d(128, 128, kernel_size=(3, 3), stride=(1, 1), padding=(1, 1))
          (1): LeakyReLU(negative_slope=0.2, inplace=True)
          (2): Conv2d(128, 128, kernel_size=(3, 3), stride=(1, 1), padding=(1, 1))
          (3): CALayer(
            (avg_pool): AdaptiveAvgPool2d(output_size=1)
            (conv_du): Sequential(
              (0): Conv2d(128, 8, kernel_size=(1, 1), stride=(1, 1))
              (1): ReLU(inplace=True)
              (2): Conv2d(8, 128, kernel_size=(1, 1), stride=(1, 1))
              (3): Sigmoid()
            )
          )
        )
      )
      (6): RCAB(
        (body): Sequential(
          (0): Conv2d(128, 128, kernel_size=(3, 3), stride=(1, 1), padding=(1, 1))
          (1): LeakyReLU(negative_slope=0.2, inplace=True)
          (2): Conv2d(128, 128, kernel_size=(3, 3), stride=(1, 1), padding=(1, 1))
          (3): CALayer(
            (avg_pool): AdaptiveAvgPool2d(output_size=1)
            (conv_du): Sequential(
              (0): Conv2d(128, 8, kernel_size=(1, 1), stride=(1, 1))
              (1): ReLU(inplace=True)
              (2): Conv2d(8, 128, kernel_size=(1, 1), stride=(1, 1))
              (3): Sigmoid()
            )
          )
        )
      )
      (7): RCAB(
        (body): Sequential(
          (0): Conv2d(128, 128, kernel_size=(3, 3), stride=(1, 1), padding=(1, 1))
          (1): LeakyReLU(negative_slope=0.2, inplace=True)
          (2): Conv2d(128, 128, kernel_size=(3, 3), stride=(1, 1), padding=(1, 1))
          (3): CALayer(
            (avg_pool): AdaptiveAvgPool2d(output_size=1)
            (conv_du): Sequential(
              (0): Conv2d(128, 8, kernel_size=(1, 1), stride=(1, 1))
              (1): ReLU(inplace=True)
              (2): Conv2d(8, 128, kernel_size=(1, 1), stride=(1, 1))
              (3): Sigmoid()
            )
          )
        )
      )
      (8): RCAB(
        (body): Sequential(
          (0): Conv2d(128, 128, kernel_size=(3, 3), stride=(1, 1), padding=(1, 1))
          (1): LeakyReLU(negative_slope=0.2, inplace=True)
          (2): Conv2d(128, 128, kernel_size=(3, 3), stride=(1, 1), padding=(1, 1))
          (3): CALayer(
            (avg_pool): AdaptiveAvgPool2d(output_size=1)
            (conv_du): Sequential(
              (0): Conv2d(128, 8, kernel_size=(1, 1), stride=(1, 1))
              (1): ReLU(inplace=True)
              (2): Conv2d(8, 128, kernel_size=(1, 1), stride=(1, 1))
              (3): Sigmoid()
            )
          )
        )
      )
      (9): RCAB(
        (body): Sequential(
          (0): Conv2d(128, 128, kernel_size=(3, 3), stride=(1, 1), padding=(1, 1))
          (1): LeakyReLU(negative_slope=0.2, inplace=True)
          (2): Conv2d(128, 128, kernel_size=(3, 3), stride=(1, 1), padding=(1, 1))
          (3): CALayer(
            (avg_pool): AdaptiveAvgPool2d(output_size=1)
            (conv_du): Sequential(
              (0): Conv2d(128, 8, kernel_size=(1, 1), stride=(1, 1))
              (1): ReLU(inplace=True)
              (2): Conv2d(8, 128, kernel_size=(1, 1), stride=(1, 1))
              (3): Sigmoid()
            )
          )
        )
      )
      (10): RCAB(
        (body): Sequential(
          (0): Conv2d(128, 128, kernel_size=(3, 3), stride=(1, 1), padding=(1, 1))
          (1): LeakyReLU(negative_slope=0.2, inplace=True)
          (2): Conv2d(128, 128, kernel_size=(3, 3), stride=(1, 1), padding=(1, 1))
          (3): CALayer(
            (avg_pool): AdaptiveAvgPool2d(output_size=1)
            (conv_du): Sequential(
              (0): Conv2d(128, 8, kernel_size=(1, 1), stride=(1, 1))
              (1): ReLU(inplace=True)
              (2): Conv2d(8, 128, kernel_size=(1, 1), stride=(1, 1))
              (3): Sigmoid()
            )
          )
        )
      )
      (11): RCAB(
        (body): Sequential(
          (0): Conv2d(128, 128, kernel_size=(3, 3), stride=(1, 1), padding=(1, 1))
          (1): LeakyReLU(negative_slope=0.2, inplace=True)
          (2): Conv2d(128, 128, kernel_size=(3, 3), stride=(1, 1), padding=(1, 1))
          (3): CALayer(
            (avg_pool): AdaptiveAvgPool2d(output_size=1)
            (conv_du): Sequential(
              (0): Conv2d(128, 8, kernel_size=(1, 1), stride=(1, 1))
              (1): ReLU(inplace=True)
              (2): Conv2d(8, 128, kernel_size=(1, 1), stride=(1, 1))
              (3): Sigmoid()
            )
          )
        )
      )
      (12): RCAB(
        (body): Sequential(
          (0): Conv2d(128, 128, kernel_size=(3, 3), stride=(1, 1), padding=(1, 1))
          (1): LeakyReLU(negative_slope=0.2, inplace=True)
          (2): Conv2d(128, 128, kernel_size=(3, 3), stride=(1, 1), padding=(1, 1))
          (3): CALayer(
            (avg_pool): AdaptiveAvgPool2d(output_size=1)
            (conv_du): Sequential(
              (0): Conv2d(128, 8, kernel_size=(1, 1), stride=(1, 1))
              (1): ReLU(inplace=True)
              (2): Conv2d(8, 128, kernel_size=(1, 1), stride=(1, 1))
              (3): Sigmoid()
            )
          )
        )
      )
      (13): RCAB(
        (body): Sequential(
          (0): Conv2d(128, 128, kernel_size=(3, 3), stride=(1, 1), padding=(1, 1))
          (1): LeakyReLU(negative_slope=0.2, inplace=True)
          (2): Conv2d(128, 128, kernel_size=(3, 3), stride=(1, 1), padding=(1, 1))
          (3): CALayer(
            (avg_pool): AdaptiveAvgPool2d(output_size=1)
            (conv_du): Sequential(
              (0): Conv2d(128, 8, kernel_size=(1, 1), stride=(1, 1))
              (1): ReLU(inplace=True)
              (2): Conv2d(8, 128, kernel_size=(1, 1), stride=(1, 1))
              (3): Sigmoid()
            )
          )
        )
      )
      (14): RCAB(
        (body): Sequential(
          (0): Conv2d(128, 128, kernel_size=(3, 3), stride=(1, 1), padding=(1, 1))
          (1): LeakyReLU(negative_slope=0.2, inplace=True)
          (2): Conv2d(128, 128, kernel_size=(3, 3), stride=(1, 1), padding=(1, 1))
          (3): CALayer(
            (avg_pool): AdaptiveAvgPool2d(output_size=1)
            (conv_du): Sequential(
              (0): Conv2d(128, 8, kernel_size=(1, 1), stride=(1, 1))
              (1): ReLU(inplace=True)
              (2): Conv2d(8, 128, kernel_size=(1, 1), stride=(1, 1))
              (3): Sigmoid()
            )
          )
        )
      )
      (15): RCAB(
        (body): Sequential(
          (0): Conv2d(128, 128, kernel_size=(3, 3), stride=(1, 1), padding=(1, 1))
          (1): LeakyReLU(negative_slope=0.2, inplace=True)
          (2): Conv2d(128, 128, kernel_size=(3, 3), stride=(1, 1), padding=(1, 1))
          (3): CALayer(
            (avg_pool): AdaptiveAvgPool2d(output_size=1)
            (conv_du): Sequential(
              (0): Conv2d(128, 8, kernel_size=(1, 1), stride=(1, 1))
              (1): ReLU(inplace=True)
              (2): Conv2d(8, 128, kernel_size=(1, 1), stride=(1, 1))
              (3): Sigmoid()
            )
          )
        )
      )
    )
  )
  (feature_extractor_x2): FeatureExtraction(
    (body): Sequential(
      (0): RCAB(
        (body): Sequential(
          (0): Conv2d(128, 128, kernel_size=(3, 3), stride=(1, 1), padding=(1, 1))
          (1): LeakyReLU(negative_slope=0.2, inplace=True)
          (2): Conv2d(128, 128, kernel_size=(3, 3), stride=(1, 1), padding=(1, 1))
          (3): CALayer(
            (avg_pool): AdaptiveAvgPool2d(output_size=1)
            (conv_du): Sequential(
              (0): Conv2d(128, 8, kernel_size=(1, 1), stride=(1, 1))
              (1): ReLU(inplace=True)
              (2): Conv2d(8, 128, kernel_size=(1, 1), stride=(1, 1))
              (3): Sigmoid()
            )
          )
        )
      )
      (1): RCAB(
        (body): Sequential(
          (0): Conv2d(128, 128, kernel_size=(3, 3), stride=(1, 1), padding=(1, 1))
          (1): LeakyReLU(negative_slope=0.2, inplace=True)
          (2): Conv2d(128, 128, kernel_size=(3, 3), stride=(1, 1), padding=(1, 1))
          (3): CALayer(
            (avg_pool): AdaptiveAvgPool2d(output_size=1)
            (conv_du): Sequential(
              (0): Conv2d(128, 8, kernel_size=(1, 1), stride=(1, 1))
              (1): ReLU(inplace=True)
              (2): Conv2d(8, 128, kernel_size=(1, 1), stride=(1, 1))
              (3): Sigmoid()
            )
          )
        )
      )
      (2): RCAB(
        (body): Sequential(
          (0): Conv2d(128, 128, kernel_size=(3, 3), stride=(1, 1), padding=(1, 1))
          (1): LeakyReLU(negative_slope=0.2, inplace=True)
          (2): Conv2d(128, 128, kernel_size=(3, 3), stride=(1, 1), padding=(1, 1))
          (3): CALayer(
            (avg_pool): AdaptiveAvgPool2d(output_size=1)
            (conv_du): Sequential(
              (0): Conv2d(128, 8, kernel_size=(1, 1), stride=(1, 1))
              (1): ReLU(inplace=True)
              (2): Conv2d(8, 128, kernel_size=(1, 1), stride=(1, 1))
              (3): Sigmoid()
            )
          )
        )
      )
      (3): RCAB(
        (body): Sequential(
          (0): Conv2d(128, 128, kernel_size=(3, 3), stride=(1, 1), padding=(1, 1))
          (1): LeakyReLU(negative_slope=0.2, inplace=True)
          (2): Conv2d(128, 128, kernel_size=(3, 3), stride=(1, 1), padding=(1, 1))
          (3): CALayer(
            (avg_pool): AdaptiveAvgPool2d(output_size=1)
            (conv_du): Sequential(
              (0): Conv2d(128, 8, kernel_size=(1, 1), stride=(1, 1))
              (1): ReLU(inplace=True)
              (2): Conv2d(8, 128, kernel_size=(1, 1), stride=(1, 1))
              (3): Sigmoid()
            )
          )
        )
      )
      (4): RCAB(
        (body): Sequential(
          (0): Conv2d(128, 128, kernel_size=(3, 3), stride=(1, 1), padding=(1, 1))
          (1): LeakyReLU(negative_slope=0.2, inplace=True)
          (2): Conv2d(128, 128, kernel_size=(3, 3), stride=(1, 1), padding=(1, 1))
          (3): CALayer(
            (avg_pool): AdaptiveAvgPool2d(output_size=1)
            (conv_du): Sequential(
              (0): Conv2d(128, 8, kernel_size=(1, 1), stride=(1, 1))
              (1): ReLU(inplace=True)
              (2): Conv2d(8, 128, kernel_size=(1, 1), stride=(1, 1))
              (3): Sigmoid()
            )
          )
        )
      )
      (5): RCAB(
        (body): Sequential(
          (0): Conv2d(128, 128, kernel_size=(3, 3), stride=(1, 1), padding=(1, 1))
          (1): LeakyReLU(negative_slope=0.2, inplace=True)
          (2): Conv2d(128, 128, kernel_size=(3, 3), stride=(1, 1), padding=(1, 1))
          (3): CALayer(
            (avg_pool): AdaptiveAvgPool2d(output_size=1)
            (conv_du): Sequential(
              (0): Conv2d(128, 8, kernel_size=(1, 1), stride=(1, 1))
              (1): ReLU(inplace=True)
              (2): Conv2d(8, 128, kernel_size=(1, 1), stride=(1, 1))
              (3): Sigmoid()
            )
          )
        )
      )
      (6): RCAB(
        (body): Sequential(
          (0): Conv2d(128, 128, kernel_size=(3, 3), stride=(1, 1), padding=(1, 1))
          (1): LeakyReLU(negative_slope=0.2, inplace=True)
          (2): Conv2d(128, 128, kernel_size=(3, 3), stride=(1, 1), padding=(1, 1))
          (3): CALayer(
            (avg_pool): AdaptiveAvgPool2d(output_size=1)
            (conv_du): Sequential(
              (0): Conv2d(128, 8, kernel_size=(1, 1), stride=(1, 1))
              (1): ReLU(inplace=True)
              (2): Conv2d(8, 128, kernel_size=(1, 1), stride=(1, 1))
              (3): Sigmoid()
            )
          )
        )
      )
      (7): RCAB(
        (body): Sequential(
          (0): Conv2d(128, 128, kernel_size=(3, 3), stride=(1, 1), padding=(1, 1))
          (1): LeakyReLU(negative_slope=0.2, inplace=True)
          (2): Conv2d(128, 128, kernel_size=(3, 3), stride=(1, 1), padding=(1, 1))
          (3): CALayer(
            (avg_pool): AdaptiveAvgPool2d(output_size=1)
            (conv_du): Sequential(
              (0): Conv2d(128, 8, kernel_size=(1, 1), stride=(1, 1))
              (1): ReLU(inplace=True)
              (2): Conv2d(8, 128, kernel_size=(1, 1), stride=(1, 1))
              (3): Sigmoid()
            )
          )
        )
      )
      (8): RCAB(
        (body): Sequential(
          (0): Conv2d(128, 128, kernel_size=(3, 3), stride=(1, 1), padding=(1, 1))
          (1): LeakyReLU(negative_slope=0.2, inplace=True)
          (2): Conv2d(128, 128, kernel_size=(3, 3), stride=(1, 1), padding=(1, 1))
          (3): CALayer(
            (avg_pool): AdaptiveAvgPool2d(output_size=1)
            (conv_du): Sequential(
              (0): Conv2d(128, 8, kernel_size=(1, 1), stride=(1, 1))
              (1): ReLU(inplace=True)
              (2): Conv2d(8, 128, kernel_size=(1, 1), stride=(1, 1))
              (3): Sigmoid()
            )
          )
        )
      )
      (9): RCAB(
        (body): Sequential(
          (0): Conv2d(128, 128, kernel_size=(3, 3), stride=(1, 1), padding=(1, 1))
          (1): LeakyReLU(negative_slope=0.2, inplace=True)
          (2): Conv2d(128, 128, kernel_size=(3, 3), stride=(1, 1), padding=(1, 1))
          (3): CALayer(
            (avg_pool): AdaptiveAvgPool2d(output_size=1)
            (conv_du): Sequential(
              (0): Conv2d(128, 8, kernel_size=(1, 1), stride=(1, 1))
              (1): ReLU(inplace=True)
              (2): Conv2d(8, 128, kernel_size=(1, 1), stride=(1, 1))
              (3): Sigmoid()
            )
          )
        )
      )
      (10): RCAB(
        (body): Sequential(
          (0): Conv2d(128, 128, kernel_size=(3, 3), stride=(1, 1), padding=(1, 1))
          (1): LeakyReLU(negative_slope=0.2, inplace=True)
          (2): Conv2d(128, 128, kernel_size=(3, 3), stride=(1, 1), padding=(1, 1))
          (3): CALayer(
            (avg_pool): AdaptiveAvgPool2d(output_size=1)
            (conv_du): Sequential(
              (0): Conv2d(128, 8, kernel_size=(1, 1), stride=(1, 1))
              (1): ReLU(inplace=True)
              (2): Conv2d(8, 128, kernel_size=(1, 1), stride=(1, 1))
              (3): Sigmoid()
            )
          )
        )
      )
      (11): RCAB(
        (body): Sequential(
          (0): Conv2d(128, 128, kernel_size=(3, 3), stride=(1, 1), padding=(1, 1))
          (1): LeakyReLU(negative_slope=0.2, inplace=True)
          (2): Conv2d(128, 128, kernel_size=(3, 3), stride=(1, 1), padding=(1, 1))
          (3): CALayer(
            (avg_pool): AdaptiveAvgPool2d(output_size=1)
            (conv_du): Sequential(
              (0): Conv2d(128, 8, kernel_size=(1, 1), stride=(1, 1))
              (1): ReLU(inplace=True)
              (2): Conv2d(8, 128, kernel_size=(1, 1), stride=(1, 1))
              (3): Sigmoid()
            )
          )
        )
      )
      (12): RCAB(
        (body): Sequential(
          (0): Conv2d(128, 128, kernel_size=(3, 3), stride=(1, 1), padding=(1, 1))
          (1): LeakyReLU(negative_slope=0.2, inplace=True)
          (2): Conv2d(128, 128, kernel_size=(3, 3), stride=(1, 1), padding=(1, 1))
          (3): CALayer(
            (avg_pool): AdaptiveAvgPool2d(output_size=1)
            (conv_du): Sequential(
              (0): Conv2d(128, 8, kernel_size=(1, 1), stride=(1, 1))
              (1): ReLU(inplace=True)
              (2): Conv2d(8, 128, kernel_size=(1, 1), stride=(1, 1))
              (3): Sigmoid()
            )
          )
        )
      )
      (13): RCAB(
        (body): Sequential(
          (0): Conv2d(128, 128, kernel_size=(3, 3), stride=(1, 1), padding=(1, 1))
          (1): LeakyReLU(negative_slope=0.2, inplace=True)
          (2): Conv2d(128, 128, kernel_size=(3, 3), stride=(1, 1), padding=(1, 1))
          (3): CALayer(
            (avg_pool): AdaptiveAvgPool2d(output_size=1)
            (conv_du): Sequential(
              (0): Conv2d(128, 8, kernel_size=(1, 1), stride=(1, 1))
              (1): ReLU(inplace=True)
              (2): Conv2d(8, 128, kernel_size=(1, 1), stride=(1, 1))
              (3): Sigmoid()
            )
          )
        )
      )
      (14): RCAB(
        (body): Sequential(
          (0): Conv2d(128, 128, kernel_size=(3, 3), stride=(1, 1), padding=(1, 1))
          (1): LeakyReLU(negative_slope=0.2, inplace=True)
          (2): Conv2d(128, 128, kernel_size=(3, 3), stride=(1, 1), padding=(1, 1))
          (3): CALayer(
            (avg_pool): AdaptiveAvgPool2d(output_size=1)
            (conv_du): Sequential(
              (0): Conv2d(128, 8, kernel_size=(1, 1), stride=(1, 1))
              (1): ReLU(inplace=True)
              (2): Conv2d(8, 128, kernel_size=(1, 1), stride=(1, 1))
              (3): Sigmoid()
            )
          )
        )
      )
      (15): RCAB(
        (body): Sequential(
          (0): Conv2d(128, 128, kernel_size=(3, 3), stride=(1, 1), padding=(1, 1))
          (1): LeakyReLU(negative_slope=0.2, inplace=True)
          (2): Conv2d(128, 128, kernel_size=(3, 3), stride=(1, 1), padding=(1, 1))
          (3): CALayer(
            (avg_pool): AdaptiveAvgPool2d(output_size=1)
            (conv_du): Sequential(
              (0): Conv2d(128, 8, kernel_size=(1, 1), stride=(1, 1))
              (1): ReLU(inplace=True)
              (2): Conv2d(8, 128, kernel_size=(1, 1), stride=(1, 1))
              (3): Sigmoid()
            )
          )
        )
      )
    )
  )
  (upsample_block_x4): UpsampleBlock(
    (upsample): Upsampler(
      (0): Conv2d(128, 512, kernel_size=(3, 3), stride=(1, 1), padding=(1, 1))
      (1): PixelShuffle(upscale_factor=2)
    )
    (reconstruction): Sequential(
      (0): RCAB(
        (body): Sequential(
          (0): Conv2d(128, 128, kernel_size=(3, 3), stride=(1, 1), padding=(1, 1))
          (1): LeakyReLU(negative_slope=0.2, inplace=True)
          (2): Conv2d(128, 128, kernel_size=(3, 3), stride=(1, 1), padding=(1, 1))
          (3): CALayer(
            (avg_pool): AdaptiveAvgPool2d(output_size=1)
            (conv_du): Sequential(
              (0): Conv2d(128, 8, kernel_size=(1, 1), stride=(1, 1))
              (1): ReLU(inplace=True)
              (2): Conv2d(8, 128, kernel_size=(1, 1), stride=(1, 1))
              (3): Sigmoid()
            )
          )
        )
      )
      (1): RCAB(
        (body): Sequential(
          (0): Conv2d(128, 128, kernel_size=(3, 3), stride=(1, 1), padding=(1, 1))
          (1): LeakyReLU(negative_slope=0.2, inplace=True)
          (2): Conv2d(128, 128, kernel_size=(3, 3), stride=(1, 1), padding=(1, 1))
          (3): CALayer(
            (avg_pool): AdaptiveAvgPool2d(output_size=1)
            (conv_du): Sequential(
              (0): Conv2d(128, 8, kernel_size=(1, 1), stride=(1, 1))
              (1): ReLU(inplace=True)
              (2): Conv2d(8, 128, kernel_size=(1, 1), stride=(1, 1))
              (3): Sigmoid()
            )
          )
        )
      )
      (2): RCAB(
        (body): Sequential(
          (0): Conv2d(128, 128, kernel_size=(3, 3), stride=(1, 1), padding=(1, 1))
          (1): LeakyReLU(negative_slope=0.2, inplace=True)
          (2): Conv2d(128, 128, kernel_size=(3, 3), stride=(1, 1), padding=(1, 1))
          (3): CALayer(
            (avg_pool): AdaptiveAvgPool2d(output_size=1)
            (conv_du): Sequential(
              (0): Conv2d(128, 8, kernel_size=(1, 1), stride=(1, 1))
              (1): ReLU(inplace=True)
              (2): Conv2d(8, 128, kernel_size=(1, 1), stride=(1, 1))
              (3): Sigmoid()
            )
          )
        )
      )
      (3): RCAB(
        (body): Sequential(
          (0): Conv2d(128, 128, kernel_size=(3, 3), stride=(1, 1), padding=(1, 1))
          (1): LeakyReLU(negative_slope=0.2, inplace=True)
          (2): Conv2d(128, 128, kernel_size=(3, 3), stride=(1, 1), padding=(1, 1))
          (3): CALayer(
            (avg_pool): AdaptiveAvgPool2d(output_size=1)
            (conv_du): Sequential(
              (0): Conv2d(128, 8, kernel_size=(1, 1), stride=(1, 1))
              (1): ReLU(inplace=True)
              (2): Conv2d(8, 128, kernel_size=(1, 1), stride=(1, 1))
              (3): Sigmoid()
            )
          )
        )
      )
      (4): RCAB(
        (body): Sequential(
          (0): Conv2d(128, 128, kernel_size=(3, 3), stride=(1, 1), padding=(1, 1))
          (1): LeakyReLU(negative_slope=0.2, inplace=True)
          (2): Conv2d(128, 128, kernel_size=(3, 3), stride=(1, 1), padding=(1, 1))
          (3): CALayer(
            (avg_pool): AdaptiveAvgPool2d(output_size=1)
            (conv_du): Sequential(
              (0): Conv2d(128, 8, kernel_size=(1, 1), stride=(1, 1))
              (1): ReLU(inplace=True)
              (2): Conv2d(8, 128, kernel_size=(1, 1), stride=(1, 1))
              (3): Sigmoid()
            )
          )
        )
      )
      (5): RCAB(
        (body): Sequential(
          (0): Conv2d(128, 128, kernel_size=(3, 3), stride=(1, 1), padding=(1, 1))
          (1): LeakyReLU(negative_slope=0.2, inplace=True)
          (2): Conv2d(128, 128, kernel_size=(3, 3), stride=(1, 1), padding=(1, 1))
          (3): CALayer(
            (avg_pool): AdaptiveAvgPool2d(output_size=1)
            (conv_du): Sequential(
              (0): Conv2d(128, 8, kernel_size=(1, 1), stride=(1, 1))
              (1): ReLU(inplace=True)
              (2): Conv2d(8, 128, kernel_size=(1, 1), stride=(1, 1))
              (3): Sigmoid()
            )
          )
        )
      )
      (6): RCAB(
        (body): Sequential(
          (0): Conv2d(128, 128, kernel_size=(3, 3), stride=(1, 1), padding=(1, 1))
          (1): LeakyReLU(negative_slope=0.2, inplace=True)
          (2): Conv2d(128, 128, kernel_size=(3, 3), stride=(1, 1), padding=(1, 1))
          (3): CALayer(
            (avg_pool): AdaptiveAvgPool2d(output_size=1)
            (conv_du): Sequential(
              (0): Conv2d(128, 8, kernel_size=(1, 1), stride=(1, 1))
              (1): ReLU(inplace=True)
              (2): Conv2d(8, 128, kernel_size=(1, 1), stride=(1, 1))
              (3): Sigmoid()
            )
          )
        )
      )
      (7): RCAB(
        (body): Sequential(
          (0): Conv2d(128, 128, kernel_size=(3, 3), stride=(1, 1), padding=(1, 1))
          (1): LeakyReLU(negative_slope=0.2, inplace=True)
          (2): Conv2d(128, 128, kernel_size=(3, 3), stride=(1, 1), padding=(1, 1))
          (3): CALayer(
            (avg_pool): AdaptiveAvgPool2d(output_size=1)
            (conv_du): Sequential(
              (0): Conv2d(128, 8, kernel_size=(1, 1), stride=(1, 1))
              (1): ReLU(inplace=True)
              (2): Conv2d(8, 128, kernel_size=(1, 1), stride=(1, 1))
              (3): Sigmoid()
            )
          )
        )
      )
      (8): RCAB(
        (body): Sequential(
          (0): Conv2d(128, 128, kernel_size=(3, 3), stride=(1, 1), padding=(1, 1))
          (1): LeakyReLU(negative_slope=0.2, inplace=True)
          (2): Conv2d(128, 128, kernel_size=(3, 3), stride=(1, 1), padding=(1, 1))
          (3): CALayer(
            (avg_pool): AdaptiveAvgPool2d(output_size=1)
            (conv_du): Sequential(
              (0): Conv2d(128, 8, kernel_size=(1, 1), stride=(1, 1))
              (1): ReLU(inplace=True)
              (2): Conv2d(8, 128, kernel_size=(1, 1), stride=(1, 1))
              (3): Sigmoid()
            )
          )
        )
      )
      (9): RCAB(
        (body): Sequential(
          (0): Conv2d(128, 128, kernel_size=(3, 3), stride=(1, 1), padding=(1, 1))
          (1): LeakyReLU(negative_slope=0.2, inplace=True)
          (2): Conv2d(128, 128, kernel_size=(3, 3), stride=(1, 1), padding=(1, 1))
          (3): CALayer(
            (avg_pool): AdaptiveAvgPool2d(output_size=1)
            (conv_du): Sequential(
              (0): Conv2d(128, 8, kernel_size=(1, 1), stride=(1, 1))
              (1): ReLU(inplace=True)
              (2): Conv2d(8, 128, kernel_size=(1, 1), stride=(1, 1))
              (3): Sigmoid()
            )
          )
        )
      )
      (10): RCAB(
        (body): Sequential(
          (0): Conv2d(128, 128, kernel_size=(3, 3), stride=(1, 1), padding=(1, 1))
          (1): LeakyReLU(negative_slope=0.2, inplace=True)
          (2): Conv2d(128, 128, kernel_size=(3, 3), stride=(1, 1), padding=(1, 1))
          (3): CALayer(
            (avg_pool): AdaptiveAvgPool2d(output_size=1)
            (conv_du): Sequential(
              (0): Conv2d(128, 8, kernel_size=(1, 1), stride=(1, 1))
              (1): ReLU(inplace=True)
              (2): Conv2d(8, 128, kernel_size=(1, 1), stride=(1, 1))
              (3): Sigmoid()
            )
          )
        )
      )
      (11): RCAB(
        (body): Sequential(
          (0): Conv2d(128, 128, kernel_size=(3, 3), stride=(1, 1), padding=(1, 1))
          (1): LeakyReLU(negative_slope=0.2, inplace=True)
          (2): Conv2d(128, 128, kernel_size=(3, 3), stride=(1, 1), padding=(1, 1))
          (3): CALayer(
            (avg_pool): AdaptiveAvgPool2d(output_size=1)
            (conv_du): Sequential(
              (0): Conv2d(128, 8, kernel_size=(1, 1), stride=(1, 1))
              (1): ReLU(inplace=True)
              (2): Conv2d(8, 128, kernel_size=(1, 1), stride=(1, 1))
              (3): Sigmoid()
            )
          )
        )
      )
      (12): RCAB(
        (body): Sequential(
          (0): Conv2d(128, 128, kernel_size=(3, 3), stride=(1, 1), padding=(1, 1))
          (1): LeakyReLU(negative_slope=0.2, inplace=True)
          (2): Conv2d(128, 128, kernel_size=(3, 3), stride=(1, 1), padding=(1, 1))
          (3): CALayer(
            (avg_pool): AdaptiveAvgPool2d(output_size=1)
            (conv_du): Sequential(
              (0): Conv2d(128, 8, kernel_size=(1, 1), stride=(1, 1))
              (1): ReLU(inplace=True)
              (2): Conv2d(8, 128, kernel_size=(1, 1), stride=(1, 1))
              (3): Sigmoid()
            )
          )
        )
      )
      (13): RCAB(
        (body): Sequential(
          (0): Conv2d(128, 128, kernel_size=(3, 3), stride=(1, 1), padding=(1, 1))
          (1): LeakyReLU(negative_slope=0.2, inplace=True)
          (2): Conv2d(128, 128, kernel_size=(3, 3), stride=(1, 1), padding=(1, 1))
          (3): CALayer(
            (avg_pool): AdaptiveAvgPool2d(output_size=1)
            (conv_du): Sequential(
              (0): Conv2d(128, 8, kernel_size=(1, 1), stride=(1, 1))
              (1): ReLU(inplace=True)
              (2): Conv2d(8, 128, kernel_size=(1, 1), stride=(1, 1))
              (3): Sigmoid()
            )
          )
        )
      )
      (14): RCAB(
        (body): Sequential(
          (0): Conv2d(128, 128, kernel_size=(3, 3), stride=(1, 1), padding=(1, 1))
          (1): LeakyReLU(negative_slope=0.2, inplace=True)
          (2): Conv2d(128, 128, kernel_size=(3, 3), stride=(1, 1), padding=(1, 1))
          (3): CALayer(
            (avg_pool): AdaptiveAvgPool2d(output_size=1)
            (conv_du): Sequential(
              (0): Conv2d(128, 8, kernel_size=(1, 1), stride=(1, 1))
              (1): ReLU(inplace=True)
              (2): Conv2d(8, 128, kernel_size=(1, 1), stride=(1, 1))
              (3): Sigmoid()
            )
          )
        )
      )
      (15): RCAB(
        (body): Sequential(
          (0): Conv2d(128, 128, kernel_size=(3, 3), stride=(1, 1), padding=(1, 1))
          (1): LeakyReLU(negative_slope=0.2, inplace=True)
          (2): Conv2d(128, 128, kernel_size=(3, 3), stride=(1, 1), padding=(1, 1))
          (3): CALayer(
            (avg_pool): AdaptiveAvgPool2d(output_size=1)
            (conv_du): Sequential(
              (0): Conv2d(128, 8, kernel_size=(1, 1), stride=(1, 1))
              (1): ReLU(inplace=True)
              (2): Conv2d(8, 128, kernel_size=(1, 1), stride=(1, 1))
              (3): Sigmoid()
            )
          )
        )
      )
    )
    (output): Conv2d(128, 2, kernel_size=(3, 3), stride=(1, 1), padding=(1, 1))
  )
  (upsample_block_x2): UpsampleBlock(
    (upsample): Upsampler(
      (0): Conv2d(128, 512, kernel_size=(3, 3), stride=(1, 1), padding=(1, 1))
      (1): PixelShuffle(upscale_factor=2)
    )
    (reconstruction): Sequential(
      (0): RCAB(
        (body): Sequential(
          (0): Conv2d(128, 128, kernel_size=(3, 3), stride=(1, 1), padding=(1, 1))
          (1): LeakyReLU(negative_slope=0.2, inplace=True)
          (2): Conv2d(128, 128, kernel_size=(3, 3), stride=(1, 1), padding=(1, 1))
          (3): CALayer(
            (avg_pool): AdaptiveAvgPool2d(output_size=1)
            (conv_du): Sequential(
              (0): Conv2d(128, 8, kernel_size=(1, 1), stride=(1, 1))
              (1): ReLU(inplace=True)
              (2): Conv2d(8, 128, kernel_size=(1, 1), stride=(1, 1))
              (3): Sigmoid()
            )
          )
        )
      )
      (1): RCAB(
        (body): Sequential(
          (0): Conv2d(128, 128, kernel_size=(3, 3), stride=(1, 1), padding=(1, 1))
          (1): LeakyReLU(negative_slope=0.2, inplace=True)
          (2): Conv2d(128, 128, kernel_size=(3, 3), stride=(1, 1), padding=(1, 1))
          (3): CALayer(
            (avg_pool): AdaptiveAvgPool2d(output_size=1)
            (conv_du): Sequential(
              (0): Conv2d(128, 8, kernel_size=(1, 1), stride=(1, 1))
              (1): ReLU(inplace=True)
              (2): Conv2d(8, 128, kernel_size=(1, 1), stride=(1, 1))
              (3): Sigmoid()
            )
          )
        )
      )
      (2): RCAB(
        (body): Sequential(
          (0): Conv2d(128, 128, kernel_size=(3, 3), stride=(1, 1), padding=(1, 1))
          (1): LeakyReLU(negative_slope=0.2, inplace=True)
          (2): Conv2d(128, 128, kernel_size=(3, 3), stride=(1, 1), padding=(1, 1))
          (3): CALayer(
            (avg_pool): AdaptiveAvgPool2d(output_size=1)
            (conv_du): Sequential(
              (0): Conv2d(128, 8, kernel_size=(1, 1), stride=(1, 1))
              (1): ReLU(inplace=True)
              (2): Conv2d(8, 128, kernel_size=(1, 1), stride=(1, 1))
              (3): Sigmoid()
            )
          )
        )
      )
      (3): RCAB(
        (body): Sequential(
          (0): Conv2d(128, 128, kernel_size=(3, 3), stride=(1, 1), padding=(1, 1))
          (1): LeakyReLU(negative_slope=0.2, inplace=True)
          (2): Conv2d(128, 128, kernel_size=(3, 3), stride=(1, 1), padding=(1, 1))
          (3): CALayer(
            (avg_pool): AdaptiveAvgPool2d(output_size=1)
            (conv_du): Sequential(
              (0): Conv2d(128, 8, kernel_size=(1, 1), stride=(1, 1))
              (1): ReLU(inplace=True)
              (2): Conv2d(8, 128, kernel_size=(1, 1), stride=(1, 1))
              (3): Sigmoid()
            )
          )
        )
      )
      (4): RCAB(
        (body): Sequential(
          (0): Conv2d(128, 128, kernel_size=(3, 3), stride=(1, 1), padding=(1, 1))
          (1): LeakyReLU(negative_slope=0.2, inplace=True)
          (2): Conv2d(128, 128, kernel_size=(3, 3), stride=(1, 1), padding=(1, 1))
          (3): CALayer(
            (avg_pool): AdaptiveAvgPool2d(output_size=1)
            (conv_du): Sequential(
              (0): Conv2d(128, 8, kernel_size=(1, 1), stride=(1, 1))
              (1): ReLU(inplace=True)
              (2): Conv2d(8, 128, kernel_size=(1, 1), stride=(1, 1))
              (3): Sigmoid()
            )
          )
        )
      )
      (5): RCAB(
        (body): Sequential(
          (0): Conv2d(128, 128, kernel_size=(3, 3), stride=(1, 1), padding=(1, 1))
          (1): LeakyReLU(negative_slope=0.2, inplace=True)
          (2): Conv2d(128, 128, kernel_size=(3, 3), stride=(1, 1), padding=(1, 1))
          (3): CALayer(
            (avg_pool): AdaptiveAvgPool2d(output_size=1)
            (conv_du): Sequential(
              (0): Conv2d(128, 8, kernel_size=(1, 1), stride=(1, 1))
              (1): ReLU(inplace=True)
              (2): Conv2d(8, 128, kernel_size=(1, 1), stride=(1, 1))
              (3): Sigmoid()
            )
          )
        )
      )
      (6): RCAB(
        (body): Sequential(
          (0): Conv2d(128, 128, kernel_size=(3, 3), stride=(1, 1), padding=(1, 1))
          (1): LeakyReLU(negative_slope=0.2, inplace=True)
          (2): Conv2d(128, 128, kernel_size=(3, 3), stride=(1, 1), padding=(1, 1))
          (3): CALayer(
            (avg_pool): AdaptiveAvgPool2d(output_size=1)
            (conv_du): Sequential(
              (0): Conv2d(128, 8, kernel_size=(1, 1), stride=(1, 1))
              (1): ReLU(inplace=True)
              (2): Conv2d(8, 128, kernel_size=(1, 1), stride=(1, 1))
              (3): Sigmoid()
            )
          )
        )
      )
      (7): RCAB(
        (body): Sequential(
          (0): Conv2d(128, 128, kernel_size=(3, 3), stride=(1, 1), padding=(1, 1))
          (1): LeakyReLU(negative_slope=0.2, inplace=True)
          (2): Conv2d(128, 128, kernel_size=(3, 3), stride=(1, 1), padding=(1, 1))
          (3): CALayer(
            (avg_pool): AdaptiveAvgPool2d(output_size=1)
            (conv_du): Sequential(
              (0): Conv2d(128, 8, kernel_size=(1, 1), stride=(1, 1))
              (1): ReLU(inplace=True)
              (2): Conv2d(8, 128, kernel_size=(1, 1), stride=(1, 1))
              (3): Sigmoid()
            )
          )
        )
      )
      (8): RCAB(
        (body): Sequential(
          (0): Conv2d(128, 128, kernel_size=(3, 3), stride=(1, 1), padding=(1, 1))
          (1): LeakyReLU(negative_slope=0.2, inplace=True)
          (2): Conv2d(128, 128, kernel_size=(3, 3), stride=(1, 1), padding=(1, 1))
          (3): CALayer(
            (avg_pool): AdaptiveAvgPool2d(output_size=1)
            (conv_du): Sequential(
              (0): Conv2d(128, 8, kernel_size=(1, 1), stride=(1, 1))
              (1): ReLU(inplace=True)
              (2): Conv2d(8, 128, kernel_size=(1, 1), stride=(1, 1))
              (3): Sigmoid()
            )
          )
        )
      )
      (9): RCAB(
        (body): Sequential(
          (0): Conv2d(128, 128, kernel_size=(3, 3), stride=(1, 1), padding=(1, 1))
          (1): LeakyReLU(negative_slope=0.2, inplace=True)
          (2): Conv2d(128, 128, kernel_size=(3, 3), stride=(1, 1), padding=(1, 1))
          (3): CALayer(
            (avg_pool): AdaptiveAvgPool2d(output_size=1)
            (conv_du): Sequential(
              (0): Conv2d(128, 8, kernel_size=(1, 1), stride=(1, 1))
              (1): ReLU(inplace=True)
              (2): Conv2d(8, 128, kernel_size=(1, 1), stride=(1, 1))
              (3): Sigmoid()
            )
          )
        )
      )
      (10): RCAB(
        (body): Sequential(
          (0): Conv2d(128, 128, kernel_size=(3, 3), stride=(1, 1), padding=(1, 1))
          (1): LeakyReLU(negative_slope=0.2, inplace=True)
          (2): Conv2d(128, 128, kernel_size=(3, 3), stride=(1, 1), padding=(1, 1))
          (3): CALayer(
            (avg_pool): AdaptiveAvgPool2d(output_size=1)
            (conv_du): Sequential(
              (0): Conv2d(128, 8, kernel_size=(1, 1), stride=(1, 1))
              (1): ReLU(inplace=True)
              (2): Conv2d(8, 128, kernel_size=(1, 1), stride=(1, 1))
              (3): Sigmoid()
            )
          )
        )
      )
      (11): RCAB(
        (body): Sequential(
          (0): Conv2d(128, 128, kernel_size=(3, 3), stride=(1, 1), padding=(1, 1))
          (1): LeakyReLU(negative_slope=0.2, inplace=True)
          (2): Conv2d(128, 128, kernel_size=(3, 3), stride=(1, 1), padding=(1, 1))
          (3): CALayer(
            (avg_pool): AdaptiveAvgPool2d(output_size=1)
            (conv_du): Sequential(
              (0): Conv2d(128, 8, kernel_size=(1, 1), stride=(1, 1))
              (1): ReLU(inplace=True)
              (2): Conv2d(8, 128, kernel_size=(1, 1), stride=(1, 1))
              (3): Sigmoid()
            )
          )
        )
      )
      (12): RCAB(
        (body): Sequential(
          (0): Conv2d(128, 128, kernel_size=(3, 3), stride=(1, 1), padding=(1, 1))
          (1): LeakyReLU(negative_slope=0.2, inplace=True)
          (2): Conv2d(128, 128, kernel_size=(3, 3), stride=(1, 1), padding=(1, 1))
          (3): CALayer(
            (avg_pool): AdaptiveAvgPool2d(output_size=1)
            (conv_du): Sequential(
              (0): Conv2d(128, 8, kernel_size=(1, 1), stride=(1, 1))
              (1): ReLU(inplace=True)
              (2): Conv2d(8, 128, kernel_size=(1, 1), stride=(1, 1))
              (3): Sigmoid()
            )
          )
        )
      )
      (13): RCAB(
        (body): Sequential(
          (0): Conv2d(128, 128, kernel_size=(3, 3), stride=(1, 1), padding=(1, 1))
          (1): LeakyReLU(negative_slope=0.2, inplace=True)
          (2): Conv2d(128, 128, kernel_size=(3, 3), stride=(1, 1), padding=(1, 1))
          (3): CALayer(
            (avg_pool): AdaptiveAvgPool2d(output_size=1)
            (conv_du): Sequential(
              (0): Conv2d(128, 8, kernel_size=(1, 1), stride=(1, 1))
              (1): ReLU(inplace=True)
              (2): Conv2d(8, 128, kernel_size=(1, 1), stride=(1, 1))
              (3): Sigmoid()
            )
          )
        )
      )
      (14): RCAB(
        (body): Sequential(
          (0): Conv2d(128, 128, kernel_size=(3, 3), stride=(1, 1), padding=(1, 1))
          (1): LeakyReLU(negative_slope=0.2, inplace=True)
          (2): Conv2d(128, 128, kernel_size=(3, 3), stride=(1, 1), padding=(1, 1))
          (3): CALayer(
            (avg_pool): AdaptiveAvgPool2d(output_size=1)
            (conv_du): Sequential(
              (0): Conv2d(128, 8, kernel_size=(1, 1), stride=(1, 1))
              (1): ReLU(inplace=True)
              (2): Conv2d(8, 128, kernel_size=(1, 1), stride=(1, 1))
              (3): Sigmoid()
            )
          )
        )
      )
      (15): RCAB(
        (body): Sequential(
          (0): Conv2d(128, 128, kernel_size=(3, 3), stride=(1, 1), padding=(1, 1))
          (1): LeakyReLU(negative_slope=0.2, inplace=True)
          (2): Conv2d(128, 128, kernel_size=(3, 3), stride=(1, 1), padding=(1, 1))
          (3): CALayer(
            (avg_pool): AdaptiveAvgPool2d(output_size=1)
            (conv_du): Sequential(
              (0): Conv2d(128, 8, kernel_size=(1, 1), stride=(1, 1))
              (1): ReLU(inplace=True)
              (2): Conv2d(8, 128, kernel_size=(1, 1), stride=(1, 1))
              (3): Sigmoid()
            )
          )
        )
      )
    )
    (output): Conv2d(128, 2, kernel_size=(3, 3), stride=(1, 1), padding=(1, 1))
  )
  (upsample_block_x1): UpsampleBlock(
    (upsample): Upsampler(
      (0): Conv2d(128, 512, kernel_size=(3, 3), stride=(1, 1), padding=(1, 1))
      (1): PixelShuffle(upscale_factor=2)
    )
    (reconstruction): Sequential(
      (0): RCAB(
        (body): Sequential(
          (0): Conv2d(128, 128, kernel_size=(3, 3), stride=(1, 1), padding=(1, 1))
          (1): LeakyReLU(negative_slope=0.2, inplace=True)
          (2): Conv2d(128, 128, kernel_size=(3, 3), stride=(1, 1), padding=(1, 1))
          (3): CALayer(
            (avg_pool): AdaptiveAvgPool2d(output_size=1)
            (conv_du): Sequential(
              (0): Conv2d(128, 8, kernel_size=(1, 1), stride=(1, 1))
              (1): ReLU(inplace=True)
              (2): Conv2d(8, 128, kernel_size=(1, 1), stride=(1, 1))
              (3): Sigmoid()
            )
          )
        )
      )
      (1): RCAB(
        (body): Sequential(
          (0): Conv2d(128, 128, kernel_size=(3, 3), stride=(1, 1), padding=(1, 1))
          (1): LeakyReLU(negative_slope=0.2, inplace=True)
          (2): Conv2d(128, 128, kernel_size=(3, 3), stride=(1, 1), padding=(1, 1))
          (3): CALayer(
            (avg_pool): AdaptiveAvgPool2d(output_size=1)
            (conv_du): Sequential(
              (0): Conv2d(128, 8, kernel_size=(1, 1), stride=(1, 1))
              (1): ReLU(inplace=True)
              (2): Conv2d(8, 128, kernel_size=(1, 1), stride=(1, 1))
              (3): Sigmoid()
            )
          )
        )
      )
      (2): RCAB(
        (body): Sequential(
          (0): Conv2d(128, 128, kernel_size=(3, 3), stride=(1, 1), padding=(1, 1))
          (1): LeakyReLU(negative_slope=0.2, inplace=True)
          (2): Conv2d(128, 128, kernel_size=(3, 3), stride=(1, 1), padding=(1, 1))
          (3): CALayer(
            (avg_pool): AdaptiveAvgPool2d(output_size=1)
            (conv_du): Sequential(
              (0): Conv2d(128, 8, kernel_size=(1, 1), stride=(1, 1))
              (1): ReLU(inplace=True)
              (2): Conv2d(8, 128, kernel_size=(1, 1), stride=(1, 1))
              (3): Sigmoid()
            )
          )
        )
      )
      (3): RCAB(
        (body): Sequential(
          (0): Conv2d(128, 128, kernel_size=(3, 3), stride=(1, 1), padding=(1, 1))
          (1): LeakyReLU(negative_slope=0.2, inplace=True)
          (2): Conv2d(128, 128, kernel_size=(3, 3), stride=(1, 1), padding=(1, 1))
          (3): CALayer(
            (avg_pool): AdaptiveAvgPool2d(output_size=1)
            (conv_du): Sequential(
              (0): Conv2d(128, 8, kernel_size=(1, 1), stride=(1, 1))
              (1): ReLU(inplace=True)
              (2): Conv2d(8, 128, kernel_size=(1, 1), stride=(1, 1))
              (3): Sigmoid()
            )
          )
        )
      )
      (4): RCAB(
        (body): Sequential(
          (0): Conv2d(128, 128, kernel_size=(3, 3), stride=(1, 1), padding=(1, 1))
          (1): LeakyReLU(negative_slope=0.2, inplace=True)
          (2): Conv2d(128, 128, kernel_size=(3, 3), stride=(1, 1), padding=(1, 1))
          (3): CALayer(
            (avg_pool): AdaptiveAvgPool2d(output_size=1)
            (conv_du): Sequential(
              (0): Conv2d(128, 8, kernel_size=(1, 1), stride=(1, 1))
              (1): ReLU(inplace=True)
              (2): Conv2d(8, 128, kernel_size=(1, 1), stride=(1, 1))
              (3): Sigmoid()
            )
          )
        )
      )
      (5): RCAB(
        (body): Sequential(
          (0): Conv2d(128, 128, kernel_size=(3, 3), stride=(1, 1), padding=(1, 1))
          (1): LeakyReLU(negative_slope=0.2, inplace=True)
          (2): Conv2d(128, 128, kernel_size=(3, 3), stride=(1, 1), padding=(1, 1))
          (3): CALayer(
            (avg_pool): AdaptiveAvgPool2d(output_size=1)
            (conv_du): Sequential(
              (0): Conv2d(128, 8, kernel_size=(1, 1), stride=(1, 1))
              (1): ReLU(inplace=True)
              (2): Conv2d(8, 128, kernel_size=(1, 1), stride=(1, 1))
              (3): Sigmoid()
            )
          )
        )
      )
      (6): RCAB(
        (body): Sequential(
          (0): Conv2d(128, 128, kernel_size=(3, 3), stride=(1, 1), padding=(1, 1))
          (1): LeakyReLU(negative_slope=0.2, inplace=True)
          (2): Conv2d(128, 128, kernel_size=(3, 3), stride=(1, 1), padding=(1, 1))
          (3): CALayer(
            (avg_pool): AdaptiveAvgPool2d(output_size=1)
            (conv_du): Sequential(
              (0): Conv2d(128, 8, kernel_size=(1, 1), stride=(1, 1))
              (1): ReLU(inplace=True)
              (2): Conv2d(8, 128, kernel_size=(1, 1), stride=(1, 1))
              (3): Sigmoid()
            )
          )
        )
      )
      (7): RCAB(
        (body): Sequential(
          (0): Conv2d(128, 128, kernel_size=(3, 3), stride=(1, 1), padding=(1, 1))
          (1): LeakyReLU(negative_slope=0.2, inplace=True)
          (2): Conv2d(128, 128, kernel_size=(3, 3), stride=(1, 1), padding=(1, 1))
          (3): CALayer(
            (avg_pool): AdaptiveAvgPool2d(output_size=1)
            (conv_du): Sequential(
              (0): Conv2d(128, 8, kernel_size=(1, 1), stride=(1, 1))
              (1): ReLU(inplace=True)
              (2): Conv2d(8, 128, kernel_size=(1, 1), stride=(1, 1))
              (3): Sigmoid()
            )
          )
        )
      )
      (8): RCAB(
        (body): Sequential(
          (0): Conv2d(128, 128, kernel_size=(3, 3), stride=(1, 1), padding=(1, 1))
          (1): LeakyReLU(negative_slope=0.2, inplace=True)
          (2): Conv2d(128, 128, kernel_size=(3, 3), stride=(1, 1), padding=(1, 1))
          (3): CALayer(
            (avg_pool): AdaptiveAvgPool2d(output_size=1)
            (conv_du): Sequential(
              (0): Conv2d(128, 8, kernel_size=(1, 1), stride=(1, 1))
              (1): ReLU(inplace=True)
              (2): Conv2d(8, 128, kernel_size=(1, 1), stride=(1, 1))
              (3): Sigmoid()
            )
          )
        )
      )
      (9): RCAB(
        (body): Sequential(
          (0): Conv2d(128, 128, kernel_size=(3, 3), stride=(1, 1), padding=(1, 1))
          (1): LeakyReLU(negative_slope=0.2, inplace=True)
          (2): Conv2d(128, 128, kernel_size=(3, 3), stride=(1, 1), padding=(1, 1))
          (3): CALayer(
            (avg_pool): AdaptiveAvgPool2d(output_size=1)
            (conv_du): Sequential(
              (0): Conv2d(128, 8, kernel_size=(1, 1), stride=(1, 1))
              (1): ReLU(inplace=True)
              (2): Conv2d(8, 128, kernel_size=(1, 1), stride=(1, 1))
              (3): Sigmoid()
            )
          )
        )
      )
      (10): RCAB(
        (body): Sequential(
          (0): Conv2d(128, 128, kernel_size=(3, 3), stride=(1, 1), padding=(1, 1))
          (1): LeakyReLU(negative_slope=0.2, inplace=True)
          (2): Conv2d(128, 128, kernel_size=(3, 3), stride=(1, 1), padding=(1, 1))
          (3): CALayer(
            (avg_pool): AdaptiveAvgPool2d(output_size=1)
            (conv_du): Sequential(
              (0): Conv2d(128, 8, kernel_size=(1, 1), stride=(1, 1))
              (1): ReLU(inplace=True)
              (2): Conv2d(8, 128, kernel_size=(1, 1), stride=(1, 1))
              (3): Sigmoid()
            )
          )
        )
      )
      (11): RCAB(
        (body): Sequential(
          (0): Conv2d(128, 128, kernel_size=(3, 3), stride=(1, 1), padding=(1, 1))
          (1): LeakyReLU(negative_slope=0.2, inplace=True)
          (2): Conv2d(128, 128, kernel_size=(3, 3), stride=(1, 1), padding=(1, 1))
          (3): CALayer(
            (avg_pool): AdaptiveAvgPool2d(output_size=1)
            (conv_du): Sequential(
              (0): Conv2d(128, 8, kernel_size=(1, 1), stride=(1, 1))
              (1): ReLU(inplace=True)
              (2): Conv2d(8, 128, kernel_size=(1, 1), stride=(1, 1))
              (3): Sigmoid()
            )
          )
        )
      )
      (12): RCAB(
        (body): Sequential(
          (0): Conv2d(128, 128, kernel_size=(3, 3), stride=(1, 1), padding=(1, 1))
          (1): LeakyReLU(negative_slope=0.2, inplace=True)
          (2): Conv2d(128, 128, kernel_size=(3, 3), stride=(1, 1), padding=(1, 1))
          (3): CALayer(
            (avg_pool): AdaptiveAvgPool2d(output_size=1)
            (conv_du): Sequential(
              (0): Conv2d(128, 8, kernel_size=(1, 1), stride=(1, 1))
              (1): ReLU(inplace=True)
              (2): Conv2d(8, 128, kernel_size=(1, 1), stride=(1, 1))
              (3): Sigmoid()
            )
          )
        )
      )
      (13): RCAB(
        (body): Sequential(
          (0): Conv2d(128, 128, kernel_size=(3, 3), stride=(1, 1), padding=(1, 1))
          (1): LeakyReLU(negative_slope=0.2, inplace=True)
          (2): Conv2d(128, 128, kernel_size=(3, 3), stride=(1, 1), padding=(1, 1))
          (3): CALayer(
            (avg_pool): AdaptiveAvgPool2d(output_size=1)
            (conv_du): Sequential(
              (0): Conv2d(128, 8, kernel_size=(1, 1), stride=(1, 1))
              (1): ReLU(inplace=True)
              (2): Conv2d(8, 128, kernel_size=(1, 1), stride=(1, 1))
              (3): Sigmoid()
            )
          )
        )
      )
      (14): RCAB(
        (body): Sequential(
          (0): Conv2d(128, 128, kernel_size=(3, 3), stride=(1, 1), padding=(1, 1))
          (1): LeakyReLU(negative_slope=0.2, inplace=True)
          (2): Conv2d(128, 128, kernel_size=(3, 3), stride=(1, 1), padding=(1, 1))
          (3): CALayer(
            (avg_pool): AdaptiveAvgPool2d(output_size=1)
            (conv_du): Sequential(
              (0): Conv2d(128, 8, kernel_size=(1, 1), stride=(1, 1))
              (1): ReLU(inplace=True)
              (2): Conv2d(8, 128, kernel_size=(1, 1), stride=(1, 1))
              (3): Sigmoid()
            )
          )
        )
      )
      (15): RCAB(
        (body): Sequential(
          (0): Conv2d(128, 128, kernel_size=(3, 3), stride=(1, 1), padding=(1, 1))
          (1): LeakyReLU(negative_slope=0.2, inplace=True)
          (2): Conv2d(128, 128, kernel_size=(3, 3), stride=(1, 1), padding=(1, 1))
          (3): CALayer(
            (avg_pool): AdaptiveAvgPool2d(output_size=1)
            (conv_du): Sequential(
              (0): Conv2d(128, 8, kernel_size=(1, 1), stride=(1, 1))
              (1): ReLU(inplace=True)
              (2): Conv2d(8, 128, kernel_size=(1, 1), stride=(1, 1))
              (3): Sigmoid()
            )
          )
        )
      )
    )
    (output): Conv2d(128, 2, kernel_size=(3, 3), stride=(1, 1), padding=(1, 1))
  )
)
[Epoch 1]	Learning rate: 1.00e-4
[800/8000]	[L1: 0.0481][DIV: 0.0427][GRAD: 29.8016][Total: 29.8924]	120.9+15.0s
[1600/8000]	[L1: 0.0319][DIV: 0.0419][GRAD: 23.8393][Total: 23.9131]	119.4+3.2s
[2400/8000]	[L1: 0.0256][DIV: 0.0418][GRAD: 21.2162][Total: 21.2835]	120.6+3.1s
[3200/8000]	[L1: 0.0228][DIV: 0.0433][GRAD: 20.6300][Total: 20.6962]	120.8+3.2s
…
